…
          (dropout): Dropout(p=0.05, inplace=False)
          (leakyrelu): LeakyReLU(negative_slope=0.2)
        )
        (attention_4): GATLayer(
          (dropout): Dropout(p=0.05, inplace=False)
          (leakyrelu): LeakyReLU(negative_slope=0.2)
        )
        (attention_5): GATLayer(
          (dropout): Dropout(p=0.05, inplace=False)
          (leakyrelu): LeakyReLU(negative_slope=0.2)
        )
        (out_att): GATLayer(
          (dropout): Dropout(p=0.05, inplace=False)
          (leakyrelu): LeakyReLU(negative_slope=0.2)
        )
      )
    )
  )
  (encoder2): FPN(
    (fc1): Linear(in_features=1489, out_features=300, bias=True)
    (act_func): ReLU()
    (fc2): Linear(in_features=300, out_features=300, bias=True)
    (dropout): Dropout(p=0.35000000000000003, inplace=False)
  )
  (fc_gat): Linear(in_features=300, out_features=360, bias=True)
  (fc_fpn): Linear(in_features=300, out_features=240, bias=True)
  (act_func): ReLU()
  (ffn): Sequential(
    (0): Dropout(p=0.35000000000000003, inplace=False)
    (1): Linear(in_features=600, out_features=300, bias=True)
    (2): ReLU()
    (3): Dropout(p=0.35000000000000003, inplace=False)
    (4): Linear(in_features=300, out_features=1, bias=True)
  )
)
Epoch 0
Train auc = 0.760784
Validation auc = 0.710489
Epoch 1
Train auc = 0.842856
Validation auc = 0.798016
Epoch 2
Train auc = 0.872071
Validation auc = 0.812899
Epoch 3
Train auc = 0.893472
Validation auc = 0.845145
Epoch 4
Train auc = 0.908013
Validation auc = 0.838767
Epoch 5
Train auc = 0.916399
Validation auc = 0.852055
Epoch 6
Train auc = 0.931404
…
          (dropout): Dropout(p=0.45, inplace=False)
          (leakyrelu): LeakyReLU(negative_slope=0.2)
        )
        (attention_2): GATLayer(
          (dropout): Dropout(p=0.45, inplace=False)
          (leakyrelu): LeakyReLU(negative_slope=0.2)
        )
        (attention_3): GATLayer(
          (dropout): Dropout(p=0.45, inplace=False)
          (leakyrelu): LeakyReLU(negative_slope=0.2)
        )
        (out_att): GATLayer(
          (dropout): Dropout(p=0.45, inplace=False)
          (leakyrelu): LeakyReLU(negative_slope=0.2)
        )
      )
    )
  )
  (encoder2): FPN(
    (fc1): Linear(in_features=1489, out_features=300, bias=True)
    (act_func): ReLU()
    (fc2): Linear(in_features=300, out_features=300, bias=True)
    (dropout): Dropout(p=0.15000000000000002, inplace=False)
  )
  (fc_gat): Linear(in_features=300, out_features=480, bias=True)
  (fc_fpn): Linear(in_features=300, out_features=120, bias=True)
  (act_func): ReLU()
  (ffn): Sequential(
    (0): Dropout(p=0.15000000000000002, inplace=False)
    (1): Linear(in_features=600, out_features=300, bias=True)
    (2): ReLU()
    (3): Dropout(p=0.15000000000000002, inplace=False)
    (4): Linear(in_features=300, out_features=1, bias=True)
  )
)
Epoch 0
Train auc = 0.746491
Validation auc = 0.690999
Epoch 1
Train auc = 0.830317
Validation auc = 0.774451
Epoch 2
Train auc = 0.886012
Validation auc = 0.818746
Epoch 3
Train auc = 0.904885
Validation auc = 0.832566
Epoch 4
Train auc = 0.915701
Validation auc = 0.842842
Epoch 5
Train auc = 0.924680
Validation auc = 0.847271
Epoch 6
Train auc = 0.938278
…
          (dropout): Dropout(p=0.6000000000000001, inplace=False)
          (leakyrelu): LeakyReLU(negative_slope=0.2)
        )
        (attention_2): GATLayer(
          (dropout): Dropout(p=0.6000000000000001, inplace=False)
          (leakyrelu): LeakyReLU(negative_slope=0.2)
        )
        (attention_3): GATLayer(
          (dropout): Dropout(p=0.6000000000000001, inplace=False)
          (leakyrelu): LeakyReLU(negative_slope=0.2)
        )
        (out_att): GATLayer(
          (dropout): Dropout(p=0.6000000000000001, inplace=False)
          (leakyrelu): LeakyReLU(negative_slope=0.2)
        )
      )
    )
  )
  (encoder2): FPN(
    (fc1): Linear(in_features=1489, out_features=450, bias=True)
    (act_func): ReLU()
    (fc2): Linear(in_features=450, out_features=300, bias=True)
    (dropout): Dropout(p=0.35000000000000003, inplace=False)
  )
  (fc_gat): Linear(in_features=300, out_features=180, bias=True)
  (fc_fpn): Linear(in_features=300, out_features=420, bias=True)
  (act_func): ReLU()
  (ffn): Sequential(
    (0): Dropout(p=0.35000000000000003, inplace=False)
    (1): Linear(in_features=600, out_features=300, bias=True)
    (2): ReLU()
    (3): Dropout(p=0.35000000000000003, inplace=False)
    (4): Linear(in_features=300, out_features=1, bias=True)
  )
)
Epoch 0
Train auc = 0.730841
Validation auc = 0.704288
Epoch 1
Train auc = 0.855259
Validation auc = 0.791637
Epoch 2
Train auc = 0.881191
Validation auc = 0.827605
Epoch 3
Train auc = 0.900520
Validation auc = 0.853827
Epoch 4
Train auc = 0.904329
Validation auc = 0.857193
Epoch 5
Train auc = 0.920354
Validation auc = 0.849752
Epoch 6
Train auc = 0.931126
…
          (dropout): Dropout(p=0.05, inplace=False)
          (leakyrelu): LeakyReLU(negative_slope=0.2)
        )
        (attention_1): GATLayer(
          (dropout): Dropout(p=0.05, inplace=False)
          (leakyrelu): LeakyReLU(negative_slope=0.2)
        )
        (attention_2): GATLayer(
          (dropout): Dropout(p=0.05, inplace=False)
          (leakyrelu): LeakyReLU(negative_slope=0.2)
        )
        (out_att): GATLayer(
          (dropout): Dropout(p=0.05, inplace=False)
          (leakyrelu): LeakyReLU(negative_slope=0.2)
        )
      )
    )
  )
  (encoder2): FPN(
    (fc1): Linear(in_features=1489, out_features=550, bias=True)
    (act_func): ReLU()
    (fc2): Linear(in_features=550, out_features=300, bias=True)
    (dropout): Dropout(p=0.45, inplace=False)
  )
  (fc_gat): Linear(in_features=300, out_features=360, bias=True)
  (fc_fpn): Linear(in_features=300, out_features=240, bias=True)
  (act_func): ReLU()
  (ffn): Sequential(
    (0): Dropout(p=0.45, inplace=False)
    (1): Linear(in_features=600, out_features=300, bias=True)
    (2): ReLU()
    (3): Dropout(p=0.45, inplace=False)
    (4): Linear(in_features=300, out_features=1, bias=True)
  )
)
Epoch 0
Train auc = 0.764454
Validation auc = 0.715627
Epoch 1
Train auc = 0.812778
Validation auc = 0.764352
Epoch 2
Train auc = 0.862789
Validation auc = 0.825301
Epoch 3
Train auc = 0.887890
Validation auc = 0.832211
Epoch 4
Train auc = 0.895383
Validation auc = 0.843551
Epoch 5
Train auc = 0.906957
Validation auc = 0.833274
Epoch 6
Train auc = 0.916641
…
          (dropout): Dropout(p=0.45, inplace=False)
          (leakyrelu): LeakyReLU(negative_slope=0.2)
        )
        (attention_4): GATLayer(
          (dropout): Dropout(p=0.45, inplace=False)
          (leakyrelu): LeakyReLU(negative_slope=0.2)
        )
        (attention_5): GATLayer(
          (dropout): Dropout(p=0.45, inplace=False)
          (leakyrelu): LeakyReLU(negative_slope=0.2)
        )
        (out_att): GATLayer(
          (dropout): Dropout(p=0.45, inplace=False)
          (leakyrelu): LeakyReLU(negative_slope=0.2)
        )
      )
    )
  )
  (encoder2): FPN(
    (fc1): Linear(in_features=1489, out_features=400, bias=True)
    (act_func): ReLU()
    (fc2): Linear(in_features=400, out_features=300, bias=True)
    (dropout): Dropout(p=0.5, inplace=False)
  )
  (fc_gat): Linear(in_features=300, out_features=300, bias=True)
  (fc_fpn): Linear(in_features=300, out_features=300, bias=True)
  (act_func): ReLU()
  (ffn): Sequential(
    (0): Dropout(p=0.5, inplace=False)
    (1): Linear(in_features=600, out_features=300, bias=True)
    (2): ReLU()
    (3): Dropout(p=0.5, inplace=False)
    (4): Linear(in_features=300, out_features=1, bias=True)
  )
)
Epoch 0
Train auc = 0.740406
Validation auc = 0.701099
Epoch 1
Train auc = 0.801024
Validation auc = 0.761871
Epoch 2
Train auc = 0.845880
Validation auc = 0.812367
Epoch 3
Train auc = 0.874289
Validation auc = 0.821049
Epoch 4
Train auc = 0.889382
Validation auc = 0.833806
Epoch 5
Train auc = 0.897702
Validation auc = 0.841956
Epoch 6
Train auc = 0.912512
…
          (dropout): Dropout(p=0.45, inplace=False)
          (leakyrelu): LeakyReLU(negative_slope=0.2)
        )
        (attention_6): GATLayer(
          (dropout): Dropout(p=0.45, inplace=False)
          (leakyrelu): LeakyReLU(negative_slope=0.2)
        )
        (attention_7): GATLayer(
          (dropout): Dropout(p=0.45, inplace=False)
          (leakyrelu): LeakyReLU(negative_slope=0.2)
        )
        (out_att): GATLayer(
          (dropout): Dropout(p=0.45, inplace=False)
          (leakyrelu): LeakyReLU(negative_slope=0.2)
        )
      )
    )
  )
  (encoder2): FPN(
    (fc1): Linear(in_features=1489, out_features=450, bias=True)
    (act_func): ReLU()
    (fc2): Linear(in_features=450, out_features=300, bias=True)
    (dropout): Dropout(p=0.4, inplace=False)
  )
  (fc_gat): Linear(in_features=300, out_features=480, bias=True)
  (fc_fpn): Linear(in_features=300, out_features=120, bias=True)
  (act_func): ReLU()
  (ffn): Sequential(
    (0): Dropout(p=0.4, inplace=False)
    (1): Linear(in_features=600, out_features=300, bias=True)
    (2): ReLU()
    (3): Dropout(p=0.4, inplace=False)
    (4): Linear(in_features=300, out_features=1, bias=True)
  )
)
Epoch 0
Train auc = 0.743723
Validation auc = 0.733168
Epoch 1
Train auc = 0.820688
Validation auc = 0.788271
Epoch 2
Train auc = 0.868996
Validation auc = 0.813962
Epoch 3
Train auc = 0.895532
Validation auc = 0.840007
Epoch 4
Train auc = 0.893821
Validation auc = 0.832743
Epoch 5
Train auc = 0.914436
Validation auc = 0.847980
Epoch 6
Train auc = 0.927072
…
        (attention_3): GATLayer(
          (dropout): Dropout(p=0.2, inplace=False)
          (leakyrelu): LeakyReLU(negative_slope=0.2)
        )
        (attention_4): GATLayer(
          (dropout): Dropout(p=0.2, inplace=False)
          (leakyrelu): LeakyReLU(negative_slope=0.2)
        )
        (attention_5): GATLayer(
          (dropout): Dropout(p=0.2, inplace=False)
          (leakyrelu): LeakyReLU(negative_slope=0.2)
        )
        (out_att): GATLayer(
          (dropout): Dropout(p=0.2, inplace=False)
          (leakyrelu): LeakyReLU(negative_slope=0.2)
        )
      )
    )
  )
  (encoder2): FPN(
    (fc1): Linear(in_features=1489, out_features=550, bias=True)
    (act_func): ReLU()
    (fc2): Linear(in_features=550, out_features=300, bias=True)
    (dropout): Dropout(p=0.35000000000000003, inplace=False)
  )
  (fc_gat): Linear(in_features=300, out_features=240, bias=True)
  (fc_fpn): Linear(in_features=300, out_features=360, bias=True)
  (act_func): ReLU()
  (ffn): Sequential(
    (0): Dropout(p=0.35000000000000003, inplace=False)
    (1): Linear(in_features=600, out_features=300, bias=True)
    (2): ReLU()
    (3): Dropout(p=0.35000000000000003, inplace=False)
    (4): Linear(in_features=300, out_features=1, bias=True)
  )
)
Epoch 0
Train auc = 0.759787
Validation auc = 0.722537
Epoch 1
Train auc = 0.846997
Validation auc = 0.790043
Epoch 2
Train auc = 0.878632
Validation auc = 0.827427
Epoch 3
Train auc = 0.903049
Validation auc = 0.839830
Epoch 4
Train auc = 0.906578
Validation auc = 0.843019
Epoch 5
Train auc = 0.921555
Validation auc = 0.846208
Epoch 6
Train auc = 0.934083
…
          (dropout): Dropout(p=0.35000000000000003, inplace=False)
          (leakyrelu): LeakyReLU(negative_slope=0.2)
        )
        (attention_1): GATLayer(
          (dropout): Dropout(p=0.35000000000000003, inplace=False)
          (leakyrelu): LeakyReLU(negative_slope=0.2)
        )
        (attention_2): GATLayer(
          (dropout): Dropout(p=0.35000000000000003, inplace=False)
          (leakyrelu): LeakyReLU(negative_slope=0.2)
        )
        (out_att): GATLayer(
          (dropout): Dropout(p=0.35000000000000003, inplace=False)
          (leakyrelu): LeakyReLU(negative_slope=0.2)
        )
      )
    )
  )
  (encoder2): FPN(
    (fc1): Linear(in_features=1489, out_features=600, bias=True)
    (act_func): ReLU()
    (fc2): Linear(in_features=600, out_features=300, bias=True)
    (dropout): Dropout(p=0.0, inplace=False)
  )
  (fc_gat): Linear(in_features=300, out_features=360, bias=True)
  (fc_fpn): Linear(in_features=300, out_features=240, bias=True)
  (act_func): ReLU()
  (ffn): Sequential(
    (0): Dropout(p=0.0, inplace=False)
    (1): Linear(in_features=600, out_features=300, bias=True)
    (2): ReLU()
    (3): Dropout(p=0.0, inplace=False)
    (4): Linear(in_features=300, out_features=1, bias=True)
  )
)
Epoch 0
Train auc = 0.789717
Validation auc = 0.725018
Epoch 1
Train auc = 0.876300
Validation auc = 0.788625
Epoch 2
Train auc = 0.916128
Validation auc = 0.846386
Epoch 3
Train auc = 0.933855
Validation auc = 0.839298
Epoch 4
Train auc = 0.940264
Validation auc = 0.849220
Epoch 5
Train auc = 0.955465
Validation auc = 0.866052
Epoch 6
Train auc = 0.955355
…
          (dropout): Dropout(p=0.55, inplace=False)
          (leakyrelu): LeakyReLU(negative_slope=0.2)
        )
        (attention_6): GATLayer(
          (dropout): Dropout(p=0.55, inplace=False)
          (leakyrelu): LeakyReLU(negative_slope=0.2)
        )
        (attention_7): GATLayer(
          (dropout): Dropout(p=0.55, inplace=False)
          (leakyrelu): LeakyReLU(negative_slope=0.2)
        )
        (out_att): GATLayer(
          (dropout): Dropout(p=0.55, inplace=False)
          (leakyrelu): LeakyReLU(negative_slope=0.2)
        )
      )
    )
  )
  (encoder2): FPN(
    (fc1): Linear(in_features=1489, out_features=450, bias=True)
    (act_func): ReLU()
    (fc2): Linear(in_features=450, out_features=300, bias=True)
    (dropout): Dropout(p=0.30000000000000004, inplace=False)
  )
  (fc_gat): Linear(in_features=300, out_features=120, bias=True)
  (fc_fpn): Linear(in_features=300, out_features=480, bias=True)
  (act_func): ReLU()
  (ffn): Sequential(
    (0): Dropout(p=0.30000000000000004, inplace=False)
    (1): Linear(in_features=600, out_features=300, bias=True)
    (2): ReLU()
    (3): Dropout(p=0.30000000000000004, inplace=False)
    (4): Linear(in_features=300, out_features=1, bias=True)
  )
)
Epoch 0
Train auc = 0.790382
Validation auc = 0.739015
Epoch 1
Train auc = 0.864341
Validation auc = 0.787562
Epoch 2
Train auc = 0.892249
Validation auc = 0.833274
Epoch 3
Train auc = 0.914978
Validation auc = 0.847626
Epoch 4
Train auc = 0.917976
Validation auc = 0.846386
Epoch 5
Train auc = 0.925422
Validation auc = 0.860560
Epoch 6
Train auc = 0.943236
…
